best_model1_lstm.pth (torch, 210025 bytes, 9 tensors)

lstm.weight_ih_l0 f4 [256, 6]
000000 68 92 db 3d 7c f4 c2 3d 46 14 11 be 3e 58 0e be
       0.10721284 0.09519288 -0.1416789 -0.13900849
000010 e0 c4 8e 3d 7e 40 b4 bd a0 5f 77 bd 4c 56 89 bd
       0.06971145 -0.088013634 -0.06039393 -0.06705913
000020 ab 86 dd bd 19 f9 ba bc 43 9b ac bc c1 40 dc bd
       -0.108167015 -0.022823857 -0.021070128 -0.10754538
000030 54 1b 49 3c 7e 46 62 bd 3d 68 f3 bd 6f 47 9d bd
       0.012274582 -0.055243008 -0.11885116 -0.076796405
000040 17 fa 16 be c4 c5 98 bd f9 db 9e 3d 78 d2 8a 3d
       -0.14743839 -0.07459596 0.077568 0.06778425
000050 5f db af 3d 56 64 bd bc 8b 0f ae bd 80 fd 83 3d
       0.085867636 -0.023119133 -0.08499058 0.06444836
000060 95 39 3c 3d 44 92 f6 bd d7 c9 dc bd 2f d2 39 bd
       0.045953352 -0.12039617 -0.107806854 -0.045366462
000070 02 1c 9f bd 13 7f 44 bd 54 85 13 bd 37 e1 bd bd
       -0.07769014 -0.04797275 -0.036015823 -0.09271472
000080 2a 44 74 bd 2d dc dc bd 06 42 82 bd 8d d8 f3 bd
       -0.05963532 -0.10784183 -0.06360249 -0.11906538
000090 9d 2f b8 3d 83 7d 9f bd c2 42 6e 3d 9a 66 0a bd
       0.089934565 -0.07787611 0.058169134 -0.033789255
0000a0 d2 9c 83 bd c4 b3 51 3d 7d 2d 9b bc 27 0f f3 bd
       -0.064263955 0.05119683 -0.018942589 -0.118681245
0000b0 a0 67 80 be 61 0e 43 bd 78 fe 49 bd 92 3b 6d 3d
       -0.2507906 -0.047621135 -0.049314946 0.05791814
0000c0 86 64 60 3c 7c 25 05 be e6 e2 5f 3e 0d 83 3e be
       0.013695842 -0.1300258 0.21863899 -0.1860468
0000d0 d4 c9 69 bc 6d c9 a9 3a e7 9b b6 3c aa 1c 23 3e
       -0.014269311 0.0012953706 0.022291137 0.15928903
0000e0 be be 03 3e d4 e2 c0 bd b0 96 a0 bc 40 9e 83 bd
       0.12865731 -0.09418264 -0.019603103 -0.06426668
0000f0 c5 85 43 bd 4a 9e 3b bd 62 d3 b9 3d 8b 75 1e bd
       -0.047734994 -0.045805253 0.09073521 -0.038686316
000100 e5 03 85 3b 5c 21 99 3d 7c 44 5b 3d a8 82 04 bd
       0.004059302 0.07477066 0.05353211 -0.032351166
000110 f7 74 52 3e 0f e0 fb 3c 8d 60 49 bd d2 54 eb bd
       0.20552431 0.030746488 -0.049164344 -0.114907876
000120 10 9d 54 3d a2 fd 0e 3d 48 d0 b7 bd 16 84 27 3e
       0.0519076 0.03490985 -0.08975273 0.1635898
000130 0b 2e 32 bd 5f 00 d9 bc 3c 34 ab bc c8 a7 df bc
       -0.04350094 -0.026489435 -0.02089893 -0.027301684
000140 d2 d1 e6 3a 9b 2c 2f 3d c9 ab 11 be 44 68 20 bd
       0.0017610139 0.04276715 -0.14225687 -0.039161935
000150 2c 04 13 be 2c 85 18 3e 93 8d f2 3d 65 78 08 3c
       -0.1435706 0.14894551 0.118434094 0.008329486
000160 0d c7 f8 3c f3 fa 30 3e 48 fa 5a 3c b9 3d be bd
       0.030368352 0.1728323 0.013365336 -0.092891164
000170 74 87 4d 3c cf d5 0d 3e 48 70 7f bc ad cb 53 3c
       0.012544502 0.13851093 -0.015590735 0.012926978
000180 40 3e a7 3d 91 46 69 3d b4 47 dd bd 6c f5 22 3d
       0.0816617 0.056952063 -0.10804692 0.039784834
000190 55 71 9c bd ac 43 3d 3e ce 6e 70 3c 8e 96 ad bd
       -0.07638804 0.18482846 0.014674855 -0.08475982
0001a0 e2 3d ab 3d 67 b3 35 bd 3a fe 2b 3d 8d 21 df 3c
       0.083614126 -0.044360545 0.041990496 0.027237678
0001b0 7e ab f0 bc a9 04 1d bd 8a ae 1d 3e 4e e2 06 bd
       -0.029378649 -0.038334522 0.15398613 -0.032930665
0001c0 c2 44 0b bc dd 1c de bd dd a6 f5 bd 58 93 8f bd
       -0.00850028 -0.10845349 -0.11994717 -0.070105255
0001d0 8d c6 1a bc f5 18 44 3d 53 11 77 3d 2e a9 7d 3d
       -0.009446752 0.047875363 0.060319256 0.06192892
0001e0 d2 14 db bd 6a c7 dc bd 2b 95 86 3c 90 ff 13 3e
       -0.106973305 -0.10780223 0.01642855 0.14452958
0001f0 fd 3d 24 bd d3 5d d1 3c 8b 15 9e 3d fc 83 7d 3c
       -0.04009818 0.025557434 0.07718953 0.015473362
000200 34 a1 18 be d7 96 06 3e 78 85 69 be 4d 7f e5 3c
       -0.14905244 0.13143478 -0.2280482 0.028014803
000210 92 02 33 be 4a 24 9a 3d 59 05 bf 3d cc de 89 3d
       -0.17481449 0.07526453 0.09327192 0.06731948
000220 38 06 28 be d6 da 9d bd 94 71 5e bd 27 f5 19 3e
       -0.16408622 -0.07707755 -0.054307535 0.15034924
000230 b1 26 72 3d 91 28 4c 3d 3e 11 03 3d c3 70 1f bc
       0.05911893 0.049843375 0.031998865 -0.009731474
000240 87 f6 7d 3c f3 94 9e bd f6 df 1e be 90 0f 13 be
       0.015500671 -0.077432536 -0.15515122 -0.14361405
000250 bb 3a ee 3c a9 f0 bf bd d9 f9 e1 bd c6 6c b7 bd
       0.02908074 -0.09372074 -0.11033983 -0.08956294
000260 6d bc 39 bb 28 3a c2 bd 9e 45 04 be 0b 8c 51 3d
       -0.002834107 -0.09483749 -0.12917182 0.051158946
000270 44 43 23 bd d6 d6 b0 3d b3 42 ca bd 3c 4c fc bd
       -0.03985907 0.08634727 -0.09876003 -0.12319228
000280 18 3e a0 bd 96 0a e4 bd 33 6f 68 bd b1 c6 ad bc
       -0.078243434 -0.111348316 -0.056746673 -0.021212908
000290 28 1c af 3d 2a 9b bc bc cb 4f c0 3c b2 5e 24 3e
       0.08550292 -0.023023207 0.023475548 0.16051748
0002a0 2a b9 36 3e 0b ce 3a bd ad dd e2 3d 06 e5 a1 bd
       0.17844072 -0.045606654 0.110774375 -0.07905011
0002b0 a8 35 30 3d 94 d5 b6 3d d5 b4 8c bd a7 aa 18 3c
       0.04301992 0.089274555 -0.068704285 0.00931803
0002c0 8e 72 f1 3c 65 0c e4 bd 72 41 cb 3c d6 18 ce bd
       0.02947357 -0.111351766 0.02481148 -0.10063331
0002d0 96 8d 62 3e 9f f7 60 3d 60 b7 1c 3c 39 e9 16 3d
       0.22124323 0.05492365 0.009565204 0.036843512
0002e0 8e 27 7f be 7f 35 0f 3d f0 ff a1 3d a6 0e e5 bc
       -0.24917433 0.034963127 0.07910144 -0.027961086
0002f0 81 7b ae bd bd 90 d4 3b b2 7e b0 bd 42 e5 89 3c
       -0.0851965 0.0064869807 -0.08617915 0.016832951
000300 b4 3a 53 bd a4 7f 56 bd de 0a 41 be cd 4d 37 3e
       -0.051569656 -0.05236782 -0.18851802 0.17900772
000310 e3 6f e9 3c 1c c5 e0 3c 7b 1b e2 bd 87 4f 01 be
       0.028495735 0.02743774 -0.11040398 -0.12627994
000320 a9 78 7e bc e3 4c 44 be 14 c9 0b 3d 14 b9 82 bd
       -0.015531697 -0.19169955 0.03412731 -0.06382957
000330 5c 4b 94 3c 4f 72 78 3d b2 e6 21 bd 50 a0 8f bd
       0.01810234 0.06065589 -0.03952665 -0.07012999
000340 10 9a 33 bd 75 e8 4c bd 02 21 b0 bd da f7 be bd
       -0.043848097 -0.050026376 -0.08600046 -0.09324618
000350 72 cc 27 be ad 89 2e 3e 2e cd f6 bd bd 46 db 3d
       -0.16386583 0.17044707 -0.12050854 0.10706852
000360 c7 0b aa bd 2c 7a 27 bb 15 cc 5e 3d 6f ab ad 3d
       -0.083030276 -0.0025554998 0.054393847 0.08479964
000370 c7 b2 18 be 1c b3 48 3d a4 6a 4e 3d 38 ce 90 3d
       -0.14911948 0.048998937 0.05039467 0.07070583
000380 4e 62 43 3e 62 ac 39 3e ba 93 b4 bd 96 73 b8 3d
       0.19080469 0.18132165 -0.08817239 0.09006421
000390 d5 fa 46 bd 40 7f 18 3d 14 23 b2 3d 80 7f 5b 3e
       -0.048579056 0.03723073 0.08698097 0.21435356
0003a0 b7 cc 3b be 64 74 45 3d 06 72 dd bc 2a 2d 37 be
       -0.18339811 0.048206702 -0.02703191 -0.17888322
0003b0 b3 cc 93 be 90 25 cc bd f3 48 e7 3b 58 0a 37 bc
       -0.2886711 -0.09968102 0.007058257 -0.0111719
0003c0 87 04 a7 3b 5c cf c3 bc 8a 56 11 3e 7c 2c be bd
       0.0050969752 -0.023902588 0.14193168 -0.092858285
0003d0 68 07 ae bb 67 16 6a 3d 08 75 75 bd b3 75 be 3b
       -0.0053109415 0.05715027 -0.059926063 0.0058123707
0003e0 1e c9 b4 bc 43 08 14 bd 78 85 c9 bd 60 0c c2 bd
       -0.022068556 -0.03614069 -0.0983991 -0.094750166
0003f0 8e d7 7d bd fa 57 0f bd 9a 1c 4c 3e 0e a1 a7 bd
       -0.061973147 -0.03499601 0.19932786 -0.081850156

lstm.weight_hh_l0 f4 [256, 64]
000000 75 de a8 3d 50 b9 2c 3d 48 fa 75 3d d2 fa f5 bd
       0.08245555 0.042168915 0.06005314 -0.12010731
000010 b0 32 5b bd ff 08 ee 3b 0d bb f8 bd c0 b8 ab bd
       -0.053515136 0.007264256 -0.12145052 -0.08384848
000020 65 e1 10 be 6b 26 c3 3a a5 fe b6 3d dc e3 1a 3c
       -0.14148481 0.0014888769 0.08935288 0.00945374
000030 a3 16 9d 3c d6 01 a3 3d 1f c8 8c bd d0 f3 3c bd
       0.019175833 0.079593346 -0.068741076 -0.046130955
000040 ab ae f9 bc 54 bc 0c be e6 f7 25 3e 26 9c f0 bd
       -0.030478796 -0.13743716 0.16207847 -0.11748533
000050 8e 4b d2 3c ab 79 b9 bd a9 a7 4b bc 28 85 44 bc
       0.025670793 -0.090564094 -0.01243011 -0.011994638
000060 a9 73 81 3d b7 c6 f5 bd d8 a1 66 3d a7 fd f6 bd
       0.063208885 -0.120007925 0.05630669 -0.12060099
000070 2f 64 ef 3d d7 7a 94 bd a8 d5 67 3d 0e 00 55 bd
       0.116890304 -0.07249992 0.056600243 -0.052002005
000080 e0 67 a8 bc ad 41 04 bd 46 ac 9d 3c 2f 72 67 3d
       -0.020557344 -0.032289196 0.019247185 0.05650538
000090 59 e1 a8 bd ef 29 b9 bc 73 35 88 bd 63 6e 0f 3e
       -0.08246107 -0.022603003 -0.0665082 0.14006953
0000a0 56 25 23 bd 94 99 7f ba c6 b2 9f bd f8 60 8a 3d
       -0.03983053 -0.0009750363 -0.0779777 0.067567766
0000b0 6b 71 31 be a3 2c 97 3d 41 2d e2 3d 5c 4a 0f 3e
       -0.17328422 0.07381561 0.11043788 0.1399321
0000c0 63 45 9e 3c 96 fe 2c be 47 18 97 3d 41 a3 8d bd
       0.019320196 -0.16893992 0.073776774 -0.06915904
0000d0 63 d3 91 bd 70 e2 89 3d b2 89 0b 3e ae fb 0e 3e
       -0.07120397 0.06732643 0.13626745 0.13963196
0000e0 5e 08 8c bc 8d 8a 99 3d 8f 01 d4 bd 32 d2 93 3b
       -0.017093834 0.074971296 -0.1035186 0.004511141
0000f0 74 27 00 be 08 d3 53 3d e4 5a 93 bd f7 a0 95 3b
       -0.1251505 0.051714927 -0.071950704 0.0045663076
000100 dd 51 f2 3d 91 e6 c8 3d 93 3c e4 bd c7 ff f5 bd
       0.118320204 0.09809602 -0.11144366 -0.12011676
000110 67 73 31 bc 7e ef 84 3c f3 22 7d bd 90 21 18 ba
       -0.010830737 0.01622748 -0.06180091 -0.0005803341
000120 40 ca 07 be cd ba 78 3c 57 61 28 3e 7d 32 bd bd
       -0.13260746 0.0151812555 0.16443382 -0.092381455
000130 65 74 ac 3d a8 c3 b8 3d d1 a1 1c 3e f9 9a c2 bd
       0.08420638 0.090216935 0.15296103 -0.09502215
000140 a6 22 5d bc 67 ea 64 3d 44 f6 06 3e bb 7a b7 3d
       -0.01349703 0.055887606 0.1317988 0.08958956
000150 b6 3f 03 bd 21 ac 8f 3d bb 12 24 3d a5 47 50 bd
       -0.03204318 0.07015253 0.040056925 -0.050849576
000160 15 42 47 3d 14 95 cd bd 05 ad 24 3d 9a 97 70 bd
       0.048647005 -0.100382 0.040204067 -0.05873833
000170 03 32 0c 3d 7b 7f f0 3d 67 ed 0e be 83 a0 ef bd
       0.034227382 0.11743065 -0.1395775 -0.11700537
000180 6e 64 e9 bd 1d 35 21 3d ba 76 b0 3d 7d c3 af bc
       -0.113961086 0.039357293 0.08616395 -0.02145552
000190 7b 92 69 3d cf 12 fa bd 63 9a 8d bd 12 a1 27 3e
       0.05702446 -0.12210619 -0.069142126 0.16370037
0001a0 5e 86 1b 3d 4c a6 91 3b 2b 7e f7 3b c3 f8 84 3c
       0.03796994 0.004444873 0.007552882 0.0162319
0001b0 45 20 44 bd 28 a6 14 3a 73 9e 07 bc 8c 51 ef 3d
       -0.047882337 0.0005670511 -0.008277523 0.11685476
0001c0 02 7a 4c bc db a3 89 3c e1 12 8c bd 63 a3 b6 3d
       -0.012480261 0.016801765 -0.06839538 0.08917882
0001d0 5e 13 a7 3d 84 2a 06 3e 8b 00 83 3c 2a 7d 3e 3e
       0.08157991 0.13102156 0.01599147 0.18602434
0001e0 7b 7b ca bc 5a 30 93 3d 8d f2 1e 3e c9 a0 2c 3e
       -0.024717083 0.07186957 0.15522213 0.1685821
0001f0 75 7d a5 bd 41 97 06 3e 28 9f bd 3d 07 8d 61 3d
       -0.0808057 0.13143636 0.09258872 0.055066135
000200 19 45 08 3e 00 36 a8 bd 82 61 6e 3d f3 62 bf 3d
       0.13307609 -0.08213425 0.05819846 0.09345045
000210 fe d2 c9 bd 58 15 de bd 95 4f 1c be 75 f7 41 3c
       -0.09854697 -0.10843915 -0.15264733 0.0118387835
000220 4f cc 2e be 45 b9 7d bd 36 b1 62 3d 37 1e 80 3d
       -0.17070125 -0.061944265 0.055344783 0.06255763
000230 6e 84 c2 3d 67 cb ac 3d 20 93 c4 3d 87 d1 fb bd
       0.09497915 0.084372334 0.09598374 -0.122958235
000240 57 45 cc bd 01 70 c3 bc 0b 9a 09 3e 11 a6 5e bc
       -0.09974163 -0.023857119 0.13437669 -0.013589398
000250 06 d0 27 3c a8 9a 91 bd cb 25 ce bd 8e b0 a0 bd
       0.010242468 -0.071095765 -0.10065802 -0.07846175
000260 f2 0e f2 3d 2d 1b 10 bd d4 0d 03 be 9a d6 d2 3c
       0.11819257 -0.035182167 -0.12798244 0.025737096
000270 a1 ea 8b 3c 8a c4 59 3c c5 33 01 3d d6 dd 15 3d
       0.017079653 0.0132914875 0.031543512 0.036588512
000280 57 0f 16 be 28 7f 2b be a3 c3 70 3a 20 29 29 bd
       -0.14654289 -0.16747725 0.00091844256 -0.041298985
000290 09 21 c6 bd 54 57 78 3d 29 a9 30 bc 0b 50 7d bd
       -0.0967427 0.060630158 -0.010782518 -0.061843913
0002a0 25 77 19 bd 27 9f 9b bd a7 d8 bc 3d b1 41 4a bd
       -0.03746714 -0.07598715 0.09221011 -0.049379054
0002b0 86 45 b1 bd 76 94 83 bd 9a 32 e8 3d fb f1 90 bc
       -0.08655839 -0.06424801 0.113377765 -0.01769351
0002c0 2a 65 0d bd c3 79 4d bc 28 32 99 bd c9 f2 86 3d
       -0.034520306 -0.012541237 -0.0748027 0.06589276
0002d0 d3 5d e2 3d b0 9a 12 bd 89 99 23 bd 02 92 5d bd
       0.11053052 -0.035792053 -0.039941344 -0.054094322
0002e0 e9 4a 4c bd e5 e6 05 3e 35 8f f3 3c d3 02 22 3e
       -0.049876127 0.1307636 0.029731372 0.1582139
0002f0 91 59 eb bc cc 57 76 bd e4 98 18 bd 9f 85 12 3e
       -0.028729232 -0.060142323 -0.037255183 0.14308785
000300 1c b1 a7 bd 06 3f 58 3d e8 72 99 3c 8b 1a a0 3d
       -0.08188078 0.05279448 0.01873155 0.07817563
000310 5e 05 92 3d b3 d5 3b bd 0e 39 ae 3d 98 37 08 be
       0.0712993 -0.045858096 0.08506976 -0.13302457
000320 c1 b7 6d bd 32 5a 9d 3d fc 2b 4e 3d 2b d3 10 bd
       -0.05803657 0.07683219 0.050334916 -0.035357635
000330 44 b1 0c bd d2 84 ef bd 29 31 87 3d 52 b6 f3 3b
       -0.03434874 -0.11695255 0.066011734 0.0074375058
000340 d5 15 14 3d 57 f5 d0 3d 2f fb cd 3d 9c 08 84 bd
       0.036153633 0.10203045 0.10057675 -0.064469546
000350 5d 39 ca bb b0 07 ed 3d 09 0a 4b 3d fc 3e 8f bd
       -0.006171389 0.11573732 0.049570117 -0.06994435
000360 cb f3 04 be 01 5c 86 3d 19 7f 2c 3d 48 64 17 3d
       -0.12983625 0.06560517 0.042113397 0.03696087
000370 09 d5 3e 3d 24 c3 df bd 2f 2c f9 3d e0 2d 8f bd
       0.046589885 -0.10925892 0.121666305 -0.06991172
000380 fb f3 ab 3d 3e 35 94 3d b7 25 04 3e 58 09 f4 3d
       0.08396145 0.07236718 0.12905012 0.11915845
000390 c6 ed dd bd 08 59 ee bd 00 69 da bd 9b b4 fb 3d
       -0.10836367 -0.11638075 -0.106645584 0.12290307
0003a0 3f 40 db 3d bc b8 d5 bd db b0 b4 3d 39 1b 87 3d
       0.10705613 -0.10435626 0.08822795 0.06596989
0003b0 c9 9f cd bd ef 7d 9e 3d 71 75 61 bb 4e 51 f3 bc
       -0.10040242 0.07738864 -0.0034402276 -0.029701855
0003c0 84 b8 cd 3d 2e c4 31 3e 38 ab 08 3e 3a 70 db 3d
       0.10044959 0.17359993 0.13346565 0.10714765
0003d0 ad 50 f6 3d a1 dc 20 bd ec 7a 1b be df da a9 3c
       0.120271064 -0.039272908 -0.1518361 0.020734249
0003e0 92 96 0c be 05 b1 29 bc 3d f1 1b 3d aa 14 9b 3c
       -0.13729313 -0.010357146 0.03807186 0.018930752
0003f0 56 f5 0a be ce cc 86 bd 2a 89 f6 3d f7 f5 63 3d
       -0.1357015 -0.06582032 0.12037881 0.055654492

lstm.bias_ih_l0 f4 [256]
000000 73 a6 c7 bd 05 dd 15 3e 8b f4 d5 bd df 5f 05 bc
       -0.097485445 0.14635094 -0.104470335 -0.008140533
000010 01 03 0f 3d 66 5e a4 bc 98 2e 92 bc d4 81 f5 3d
       0.034914974 -0.020064544 -0.017844483 0.119876534
000020 fa 99 2d 3c c4 8e 10 bb 4d e1 07 3e 3c cc 48 ba
       0.010595793 -0.0022057751 0.13269539 -0.0007659828
000030 7b cd dc 3c 4b 58 bb 3d 0c 4f 9a 3c 7d 19 53 bd
       0.02695345 0.091477 0.01883652 -0.05153798
000040 35 b4 2b 3e 94 66 d8 bd 54 6a f9 bd bb 4a 39 bd
       0.16767962 -0.1056644 -0.121784836 -0.045237284
000050 f2 cf 96 3d 11 16 53 3e cc cd a9 bd 42 d2 96 bc
       0.07363881 0.20613886 -0.08291206 -0.018410806
000060 00 eb 0d 3e 73 3d ec 3d 58 b5 82 3d 63 ff b1 bd
       0.13859177 0.11535158 0.06382245 -0.08691289
000070 51 48 c2 3d 84 62 0b 3c 97 9a 04 bd 7d c4 07 3e
       0.094864495 0.008507375 -0.03237399 0.13258548
000080 10 a1 80 bd 43 fc f4 3d 70 4f 8d bc e7 4c 3b 3e
       -0.0628072 0.119621776 -0.017249793 0.18291055
000090 e1 e3 40 3d 89 b1 cf 3b 9c 28 16 3e f8 c3 28 3e
       0.047092322 0.0063383025 0.14663929 0.16481006
0000a0 2c ae 35 3d ab 68 dd 3d 5a 76 6f bc 1b 9f 47 bd
       0.044355556 0.108109795 -0.01461562 -0.04873572
0000b0 9d f9 3d bd c1 15 df bd 4e 2b 06 3e 44 3a 92 3d
       -0.046380628 -0.10892821 0.13102457 0.071400195
0000c0 b6 b0 98 bd 1a 76 0d bd e4 55 b9 3d 2b 14 08 3d
       -0.0745558 -0.03453646 0.090495855 0.03322236
0000d0 93 83 a4 bc f3 e1 f9 3c 11 15 da bc b1 ff 74 3d
       -0.02008227 0.030503249 -0.026621373 0.05981416
0000e0 f5 61 8d bc c0 16 70 bd 3d 2b 58 bd 73 9d ee bc
       -0.017258624 -0.058615446 -0.05277561 -0.029127812
0000f0 97 fa 09 3d 39 0a d5 3d c8 e2 8c 3d 63 0d ff 3d
       0.033686247 0.104023404 0.068791926 0.12453725
000100 9d 3a c1 bc c2 7c 48 bc c3 a2 68 bd 79 f9 ad bd
       -0.02358752 -0.012236776 -0.056795847 -0.08494849
000110 d7 f8 67 bd a4 43 d0 3c 10 e1 10 3e ce c9 48 bd
       -0.056633797 0.025422879 0.14148355 -0.04902058
000120 14 18 1c 3e a5 8e 98 3d c2 98 a6 3d 90 0e dd 3d
       0.1524356 0.07449082 0.08134605 0.10793793
000130 c0 c6 d8 3d 1c 22 f4 3d 27 95 ed 3d f6 42 6e 3a
       0.105847836 0.11920568 0.11600714 0.00090889574
000140 34 14 00 3e 7b 31 64 3c 73 5e 4d bd 46 01 86 3d
       0.12507707 0.013927813 -0.050138902 0.06543212
000150 dc 0b 3b 3e ba 96 41 3e 89 66 0a bd ff 3f 50 3d
       0.18266243 0.18905154 -0.03378919 0.05084228
000160 56 a6 ab 3d b9 b0 cc 3d 73 0d b6 bd 26 be 31 3d
       0.083813354 0.09994645 -0.08889284 0.04339423
000170 07 99 b9 3c 5a a5 0c 3e 6f b2 dd 3d 27 42 8c bc
       0.022655977 0.13734952 0.10825049 -0.017121388
000180 d3 ca 09 bc 37 db 47 3e 1c 4a 0c 3d 4b 39 da 3d
       -0.0084101735 0.19517218 0.034250364 0.10655459
000190 4c 1c 17 3e 98 26 90 bd 5b ed b6 3d 6f 4d 05 bd
       0.14756888 -0.07038611 0.08931991 -0.03254455
0001a0 a9 f4 ed 3c 83 a3 8a 3d 8b 6c b4 3c 62 ce af 3d
       0.029047327 0.06769469 0.022024414 0.08584286
0001b0 f1 0d 3c bd 45 e6 78 3d e6 50 9f bc 1a 7d 0e 3e
       -0.045911733 0.060766477 -0.019447755 0.1391491
0001c0 9a 85 55 bc 5f bb 2e 3e ef 6c 26 3d b0 6a b5 3d
       -0.013032341 0.17063664 0.04063123 0.0885824
0001d0 b8 54 d2 bc e4 4f 8a 3d b0 bd 0e 3e ca fe 10 bd
       -0.025675163 0.06753519 0.13939548 -0.035399236
0001e0 8b a8 19 3e 72 49 49 3d e7 ec df bc 61 1d 53 bd
       0.150057 0.04914231 -0.027334644 -0.05154169
0001f0 22 9e cc 3d dc 2b fe 3b df 1d e4 3d 0f e7 56 3d
       0.09991099 0.0077566933 0.1113851 0.05246645
000200 41 9c c2 3d 80 8c b7 bd 06 a3 a9 bc 3f 24 5a 3d
       0.09502459 -0.08962345 -0.020707618 0.053257223
000210 be db 8a bd ab 1f 81 bc 51 3e c4 bc a4 7e 06 3e
       -0.06780194 -0.01576217 -0.023955496 0.13134247
000220 a5 58 5f 3d 90 a9 e7 bd 69 68 32 3d 59 e3 db 3d
       0.054527897 -0.11311638 0.043556605 0.107367225
000230 b2 63 8d 3d 9f 57 e7 3d 66 d7 1b bd 1c f1 3f bb
       0.06903781 0.11296009 -0.038047217 -0.0029288
000240 63 c9 ad 3d e9 83 04 3e 8d 46 5b bd 29 39 fe 3c
       0.08485677 0.12940945 -0.05353408 0.031033115
000250 10 61 4e 3c b0 e2 ca 3d d7 55 6d bd b8 8c 5e bc
       0.012596384 0.099065185 -0.05794319 -0.013583355
000260 10 e8 40 3d 53 2d 5d bc 80 17 93 bd 3a 61 ef 3d
       0.047096312 -0.013499576 -0.07182217 0.11688466
000270 68 74 1b bd 1f 26 ae 3d 56 fc 93 bc c9 2b e6 bd
       -0.03795281 0.08503365 -0.01806466 -0.1123882
000280 6e 2b b4 bd 8e 29 ff 3c b5 e0 ca 3d 4c c1 52 bb
       -0.08797346 0.031147745 0.09906141 -0.003215867
000290 68 e6 bd 3d ac 9b 00 3c f0 0f 69 3d 58 6f 13 3e
       0.09272462 0.007849615 0.056899965 0.14397943
0002a0 3c 32 b5 3d 41 48 db 3d cb 6e ce bd bd 8c b7 bd
       0.08847472 0.10707141 -0.10079726 -0.089623906
0002b0 bb c2 cb 3d 8b f5 e5 3d b7 73 90 3d 44 17 09 3d
       0.09949251 0.11228474 0.07053321 0.033469453
0002c0 54 20 fb bc 37 8b 01 3d 3a f4 31 bd 32 56 91 bc
       -0.030655064 0.031626906 -0.043445803 -0.017741296
0002d0 12 29 e8 3d e4 51 90 bd a8 8e b5 bd c2 dd c3 bc
       0.113359585 -0.070468694 -0.088651 -0.023909453
0002e0 95 6b 44 3d ee 07 c7 bd 19 8c b0 3d 52 7a 47 38
       0.04795416 -0.09718309 0.086204715 4.7559217e-05
0002f0 a1 4e 44 3c f1 94 a3 3d 9f 54 96 3d 34 3f 5a bc
       0.011981637 0.07987393 0.07340359 -0.013320733
000300 e3 e2 de bd e0 6c 16 3e 3f 04 b2 bc 72 e2 6a bd
       -0.10883119 0.1468997 -0.02173054 -0.05734486
000310 79 5c 95 3d 7b 4a e8 3d 6e 49 0a 3d f3 2c 93 bb
       0.072930284 0.11342331 0.033761434 -0.0044914423
000320 e9 ef 52 bd 02 42 87 3d 1a 78 87 3d 17 57 f4 3d
       -0.051498327 0.06604387 0.066147044 0.119306736
000330 44 77 1c 3e 13 7c 3b bd ca 2a 9f 3d 58 1f 2d 3e
       0.15279871 -0.045772623 0.07771833 0.16906488
000340 bf cf c2 3d be 3c 4c bc d7 f7 a2 bd a7 85 c8 3c
       0.09512281 -0.012465654 -0.07957428 0.024477793
000350 0e 8f 0c bc 7e ca 0e 3d e0 f4 ab bd 10 13 d4 3d
       -0.008579029 0.03486108 -0.083963156 0.103551984
000360 84 02 71 3c 9d 21 a6 3d a9 3e b4 3d bb 2c df bd
       0.014710072 0.0811188 0.08801014 -0.108972035
000370 da 80 98 bb 47 10 07 3e 1e 23 5b 3d bf b0 e2 3d
       -0.004654032 0.13189803 0.053500287 0.11068868
000380 9a 1f 94 bd e7 10 46 3e eb d0 e9 3d 59 2d a6 bc
       -0.0723259 0.19342385 0.11416801 -0.020285295
000390 de 27 9b 3d 34 2a 01 3e 48 1f 18 3e 10 ff e8 3d
       0.075759634 0.12613755 0.14855683 0.11376774
0003a0 60 79 a8 3c 69 bd 4c bc 19 40 83 bd d5 b4 1d 3e
       0.020565689 -0.012496331 -0.0640871 0.15401013
0003b0 7e ff 2f 3d 7c 1e 04 3d c8 6a 3b bd 2e 80 2b bd
       0.042968266 0.032255635 -0.04575613 -0.04187029
0003c0 87 54 9a 3a 37 1c 0f 3e d4 03 fe 3d a0 63 ff 3c
       0.0011774459 0.13975607 0.12403074 0.031175435
0003d0 fc 95 0c 3e 41 38 de 3c 8e 23 a5 bb 12 87 3e 3e
       0.1372909 0.027126433 -0.005039639 0.18606213
0003e0 08 10 9b 3d fc f6 04 3e 83 c8 b6 bd cf 32 3a 3d
       0.07571417 0.12984842 -0.08924963 0.04545861
0003f0 c9 7a 25 bc 39 e4 0f 3e 53 ee d9 3d 2f 18 8e 3d
       -0.010100075 0.14051904 0.1064116 0.069382064

lstm.bias_hh_l0 f4 [256]
000000 07 3f a6 3d 4a 6d 4f bd fa 3f 9b bc c8 49 b4 3d
       0.0811749 -0.050641336 -0.018951405 0.08803135
000010 7c 5f 30 bd 89 1a 77 3d fc 80 6b 3d 49 4a 2e bd
       -0.04305981 0.06032804 0.057496056 -0.042551313
000020 98 de 0b bd 29 bb a3 bd f4 47 bc bd e6 d5 7f b9
       -0.03414783 -0.07994682 -0.091934115 -0.00024398378
000030 67 ff 92 3d 61 1a 6f 3d 0a b2 f3 3d f7 be 82 3d
       0.071776204 0.058374766 0.11899193 0.0638408
000040 2b a9 0c bc dc 26 ed bd 6e f9 e1 3d 80 a6 28 3d
       -0.008585255 -0.115796775 0.11033903 0.04117441
000050 dd a1 1c 3e bb b8 4a bc ef 5a 5a bd 01 f1 25 3d
       0.15296121 -0.012373145 -0.053309377 0.040513042
000060 f1 34 04 3e d7 92 ad bd 16 ce 4c bd ad 7a 9b bd
       0.1291082 -0.08475273 -0.050001226 -0.07591758
000070 e5 d0 b7 3d ec dc d5 3c 47 f3 84 3c 0a b5 f1 3d
       0.0897539 0.02610632 0.016229285 0.118021086
000080 e4 da 8f bd 0d fb b1 3d d2 6a ce bb 98 c6 48 3d
       -0.07024172 0.08690462 -0.006299355 0.04901752
000090 e0 3b 36 3d 08 57 0a 3d bf f5 4c 3e a4 ca 72 bd
       0.044490695 0.033774406 0.2001562 -0.059275284
0000a0 60 ba e3 3a 55 d4 61 3c 02 76 b4 bc 70 22 0a 3e
       0.001737427 0.013783534 -0.022028927 0.134897
0000b0 76 36 af 3d bd 4d d8 3d 98 e2 e5 3d b6 4c 0a 3d
       0.085553095 0.105617024 0.1122486 0.033764564
0000c0 48 b4 c4 3d 7b a6 81 3d fa 9b d0 3d 52 40 3a 3d
       0.096046984 0.06330582 0.10186 0.045471497
0000d0 db ca eb 3d ea 7f c1 3d cb 80 ea bc 75 00 1a 3e
       0.11513301 0.09448226 -0.028625866 0.15039237
0000e0 b1 8e 0b 3e bd 8a f8 bc b1 4c 87 bc b1 1b b5 bd
       0.13628651 -0.030339593 -0.016516061 -0.08843172
0000f0 34 8f c7 3d fb 81 57 bd 1b 25 96 bd 54 38 17 3e
       0.09744111 -0.052614193 -0.07331296 0.14767581
000100 bf cb 30 3d 25 18 0f 3e 80 9c b0 bd 0b fb 42 bd
       0.043163057 0.13974054 -0.086236 -0.047602694
000110 62 cd 59 bc 47 ce 03 3e 97 a9 91 bd 8d ec 0e bd
       -0.013293596 0.12871657 -0.07112425 -0.03489356
000120 e1 1c b5 3c 6b 57 5f bd 13 9d 0f 3e 60 a7 d7 3d
       0.022108497 -0.054526728 0.14024763 0.10529971
000130 ad 0c 3b bd df 2e 2f bd 7c 59 85 3d 7a 2f 52 bd
       -0.045666385 -0.04276931 0.065112084 -0.05131481
000140 c5 b7 8a bc 5b 81 0a 3e e2 fd 94 bd d8 18 bc 3d
       -0.016933331 0.13525908 -0.07274987 0.09184426
000150 66 ca b1 3c 9d 22 ac 39 2d a2 15 bd 58 15 98 3b
       0.021702956 0.00032832185 -0.036531616 0.0046412162
000160 9b 83 48 bd 48 4d 3c bd f7 a3 69 3c 7f 87 21 bd
       -0.048953634 -0.04597214 0.014260284 -0.03943586
000170 f0 68 0e 3e 29 ed d0 bd 0b 74 56 3d f1 5c f8 3d
       0.13907218 -0.10201485 0.05235676 0.12127102
000180 99 3a 51 bd 84 66 84 3d 03 68 fb bc 85 aa 18 bd
       -0.051081274 0.06464866 -0.030689245 -0.037271995
000190 c1 91 c7 3d b9 7f 93 3d 0b d1 e4 3d 8a 4f 37 3e
       0.09744597 0.072020955 0.11172684 0.17901435
0001a0 82 65 83 3d bf e0 a8 bd 16 1d cc bd cf 01 2c 3d
       0.064158455 -0.08245992 -0.09966485 0.041993912
0001b0 50 fd 0e bd df c9 f8 3d 25 f0 9d 3c 42 9b 29 3e
       -0.034909546 0.12147879 0.019279549 0.16563132
0001c0 c0 ea 42 ba bb ec 2b 3c 79 f7 be bd d8 fa 28 3e
       -0.0007435493 0.010493453 -0.093245454 0.1650194
0001d0 c8 0f 20 bd 9a ec 0c 3e ff 8b b3 ba fc 25 04 bd
       -0.03907755 0.13762131 -0.0013698338 -0.032262787
0001e0 8b 44 6f 3c bf 29 81 3d e6 58 f8 3d 98 b1 98 bd
       0.014603744 0.063067906 0.12126331 -0.07455748
0001f0 12 83 8f bd 47 b5 b4 3d 35 ab e1 3d 21 6d 30 bd
       -0.070074216 0.088236384 0.11018983 -0.043072823
000200 c7 61 f8 3c 2b a3 ac bc b0 f4 e5 bd 70 63 8c 3d
       0.030320061 -0.021073898 -0.11228311 0.06854904
000210 4a 7e e3 bd fb 6e 3c 3c cc 5a c1 bc b6 8e 47 bd
       -0.11108072 0.011501069 -0.023602866 -0.048720084
000220 77 dc a8 bc cd be de bd 6c 51 f4 3d 4f e9 bb bd
       -0.020612938 -0.10876236 0.119295925 -0.091753595
000230 58 6d aa 3d 28 0d 75 3b e0 a3 9a bc 37 41 c8 bc
       0.08321637 0.0037391875 -0.01887697 -0.02444516
000240 b9 9d b9 bd 7d b2 0a bc ad cc 95 3d 62 ec 5f bd
       -0.09063286 -0.0084654065 0.073144294 -0.05466879
000250 ac 2b 84 3d 49 92 e5 bd 06 d4 84 bd 70 d6 b4 3d
       0.06453642 -0.11209542 -0.06485753 0.08829963
000260 5b d7 40 3d 64 5b dc bd 30 e9 cd bd 1e 16 bb 3d
       0.04708038 -0.10759619 -0.100542426 0.09135078
000270 21 1c 1b b9 3a b5 fe 3d 33 d7 e7 bd 87 71 34 3d
       -0.00014792431 0.1243691 -0.11320343 0.04405358
000280 5d 30 00 be 1a 6a 51 3d f2 54 06 bd 7d 92 8f 3a
       -0.12518449 0.051126577 -0.032795854 0.0010953691
000290 12 02 87 bb 25 ea 7b 3a 8f 9d a4 bd 2f 50 49 bd
       -0.00412012 0.00096097804 -0.080378644 -0.049148735
0002a0 07 3d 6c 3d 92 42 7e bd cc 07 5f 3c b0 9c 47 bc
       0.057675388 -0.062075205 0.013612699 -0.012183353
0002b0 cb 79 a2 3d 99 23 0d bd 4d d1 c2 3d b3 56 9f bc
       0.079333864 -0.034457777 0.09512577 -0.019450521
0002c0 c4 c8 91 bd 3b 7c 3b 3c 8d 06 76 bd 3d d3 90 3c
       -0.07118371 0.011443193 -0.06006484 0.017678851
0002d0 f5 46 82 bd f3 75 bf 3c 93 37 ea bb 42 9e 3e bd
       -0.0636119 0.023371672 -0.0071477382 -0.046537645
0002e0 a8 1d 00 be 45 84 bb bc 1d 55 e3 3d b9 09 85 3d
       -0.12511313 -0.02289022 0.111002184 0.06495995
0002f0 21 48 62 bd 5d 58 8c 3c 9b e7 29 3d 9c 80 90 3d
       -0.05524457 0.017131979 0.04148064 0.0705578
000300 28 5f c3 3d 8b 56 f4 bc 39 3b 33 bc 42 e2 ea 3d
       0.09539634 -0.029826423 -0.010939413 0.114689365
000310 51 de 33 3d f1 0f 23 bd dd eb 3f bd de d8 99 3b
       0.04391319 -0.039810125 -0.046855796 0.004695042
000320 8a 97 64 bd 27 fd 93 bd 39 08 16 3e 86 5f f5 3c
       -0.05580858 -0.07226019 0.14651574 0.029952776
000330 f6 9a e4 3d d6 24 bf bd 02 5d c8 3d ef ee be 3d
       0.11162369 -0.09333198 0.09783365 0.09322917
000340 ee dc 92 bc f5 47 71 3b 07 c3 4f 3d c0 1e 9b bd
       -0.017927613 0.0036816571 0.050723102 -0.075742245
000350 39 27 d2 3d 71 5a 45 3e 4c 7c a1 bd b8 1b 7c 3b
       0.102613874 0.19272782 -0.07885036 0.003846867
000360 0d 9e f6 3d 46 db 83 3c eb 0b 55 bd 89 6f 3e 3d
       0.120418645 0.016095769 -0.05201332 0.046493087
000370 56 e5 80 bd 13 f4 7e 3d 42 70 34 3b 89 3a 93 3d
       -0.06293742 0.062244486 0.0027532731 0.07188899
000380 cb 54 fb bc b7 44 2b 3d 66 9d 5b 3b 5f 07 08 3e
       -0.03068008 0.04181358 0.0033510565 0.13284062
000390 f7 b7 8b bd 9e 2e fa 3d 43 a4 15 3e ff 7d c1 3a
       -0.06822198 0.12215923 0.14613442 0.0014762281
0003a0 99 38 1d 3e 94 79 f4 3d f6 64 55 bd 5f 55 2e 3d
       0.15353622 0.11937252 -0.052098237 0.042561885
0003b0 f7 77 4e 3d ce 49 45 bc 01 66 f0 3d 38 94 c4 3c
       0.050407376 -0.012041522 0.11738206 0.023996457
0003c0 9a 31 dd bc c4 51 e2 3d 4c 71 c6 3d 6d 95 11 3e
       -0.02700119 0.11050752 0.096895784 0.14217158
0003d0 89 80 22 bd cf 77 94 3c 04 53 be bc 7d a5 7c 3c
       -0.039673362 0.018123535 -0.023232944 0.015420315
0003e0 d8 ac 37 3c d9 7f 81 bd 65 9b 25 bd 4e 42 03 bd
       0.011210643 -0.06323213 -0.0404314 -0.032045655
0003f0 c3 39 55 bd e2 12 bf 3d 09 f4 e5 3d 9c aa 09 bc
       -0.05205704 0.093297735 0.11228187 -0.008402493

lstm.weight_ih_l1 f4 [256, 64]
000000 2c 7e 2d 3e b6 f5 87 3c 57 09 e7 bd 5b 07 e0 3d
       0.16942662 0.016596656 -0.11281078 0.10938903
000010 5d 58 36 bc e9 ab 1a 3d 21 4d a2 bd 4d e9 03 be
       -0.011129466 0.037761603 -0.079248674 -0.12881966
000020 7e 9f 0c 3e b4 0d da bd c0 1b 49 3d 1f 26 18 be
       0.13732716 -0.10647145 0.04909873 -0.14858292
000030 0e 77 99 bc cb 53 45 3d 79 0d 26 be b7 79 c7 bd
       -0.018733528 0.048175614 -0.16216077 -0.09740012
000040 5b 05 85 bd 72 df 43 bd 2a fb 4b 3d 4b fa e3 bd
       -0.06495162 -0.047820516 0.049800076 -0.11131724
000050 95 58 44 3e 28 22 a5 3d d1 8c a0 bb a7 75 06 3d
       0.19174416 0.080631554 -0.004899599 0.032827046
000060 4a 4c 6a bd fc e3 8d 3c 34 38 08 be 9e 9d c6 3d
       -0.05720166 0.017320625 -0.1330269 0.09698032
000070 39 b0 17 bd 6f 3c b6 bd de 9d 47 3d ea f1 8d bd
       -0.037033293 -0.088982455 0.04873454 -0.06930907
000080 84 ae f3 bd c8 dc ef bc 04 5f 34 bd 2e 29 f4 bb
       -0.118985206 -0.029280081 -0.044035926 -0.007451198
000090 ea 23 e0 bd 35 fc 52 bd 0f 90 a6 bc 66 c6 cb 3b
       -0.1094435 -0.051510055 -0.020332364 0.0062187193
0000a0 f0 e9 37 3d 38 5b f1 3d 7a 37 6f 3c 49 df 35 bd
       0.044900835 0.11784977 0.014600629 -0.044402394
0000b0 ea 34 67 3d 4c f9 a9 bd 2d 32 df 3c 8b 0e 0b 3e
       0.056446947 -0.08299503 0.027245605 0.13579766
0000c0 a8 85 65 bd 1d e4 1e 3e 33 dd 22 3e ba ee f9 bb
       -0.056035668 0.15516706 0.15904693 -0.0076273354
0000d0 83 50 2f bd 5a ae 86 bd 51 28 2a 3e 8c bb 00 bd
       -0.04280139 -0.06576224 0.16616942 -0.03142886
0000e0 23 83 17 be f2 f7 06 be 25 1b 5c 3d 2a f3 4d 3c
       -0.14796118 -0.13180521 0.053736825 0.012570182
0000f0 81 4d a7 3d 3b 3e e9 3d ae 74 8d 3d ab 9c 97 3d
       0.081690796 0.11388823 0.069070205 0.07402929
000100 36 fc ae 3d 6a 3c a3 bd 5a 28 fd 3d c2 f7 a8 3c
       0.08544199 -0.079705074 0.12361212 0.020625953
000110 99 87 1c bd 94 5a 34 bd ea c9 87 bd 99 9c f3 bc
       -0.038215254 -0.044031695 -0.06630309 -0.029737758
000120 5b 32 ad 3d ea f3 85 3d 09 ca c3 bd 57 08 8f 3d
       0.0845687 0.065406635 -0.095600195 0.069840126
000130 db 67 8f 3d a6 54 14 3d cc 98 fe 3b a5 58 86 bd
       0.07002231 0.03621354 0.0077696797 -0.06559876
000140 49 a3 a9 3d 34 a5 0f bd 2f e1 a1 bd 45 f9 04 3a
       0.08283097 -0.03506966 -0.079042785 0.00050725444
000150 0b 5f cf 3d 4d 6d 02 3e 26 2d c4 3c 1b b4 a9 3d
       0.1012555 0.12737007 0.02394731 0.082863055
000160 e1 0e b4 3b 7b 92 1a bd af ae d5 3c 20 00 9a bb
       0.0054949378 -0.03773735 0.026084272 -0.004699722
000170 2c 0e 20 be 3e ca ee 3c f6 bb 0a 3e 91 aa e5 3d
       -0.15630406 0.029149171 0.13548264 0.112141736
000180 24 25 fb 3d cf c1 42 3e 96 44 ec 3c f6 9d 62 bd
       0.122629434 0.19019245 0.028841298 -0.055326425
000190 67 8c 83 bd 82 2e 73 bd cd 1c 6d bd 7b 47 34 3d
       -0.06423264 -0.059370525 -0.057888795 0.04401348
0001a0 fa fa f0 bc 04 d0 b9 bd 29 4e bc 3d 1b 26 b7 bd
       -0.02941655 -0.09072879 0.09194595 -0.08942815
0001b0 c7 ea 46 bd 07 48 68 be 32 9c ae 3a 50 c2 3d bb
       -0.048563745 -0.22683726 0.0013321696 -0.002895493
0001c0 b3 3a 09 be b8 71 f1 bc 01 cd 0b 3e 36 60 80 3d
       -0.13401298 -0.02947317 0.13652422 0.06268351
0001d0 d3 99 2c 3e d8 f9 28 3d 5c 98 81 3c bc dc fc 3a
       0.16855554 0.041253895 0.01581972 0.0019291858
0001e0 6e 75 7f 3c 5d 75 3c be 35 73 cd 3d c4 c1 8e bd
       0.015591962 -0.18404146 0.100317396 -0.069705516
0001f0 26 ad 9c 3d cf e3 99 bd fc d6 5e bd 28 15 21 be
       0.07650213 -0.07514154 -0.054404244 -0.15730727
000200 b1 8c 85 bc 28 61 79 3d b9 53 ef bd 36 96 74 3c
       -0.016302438 0.06088367 -0.11685891 0.014928391
000210 a4 9a a5 bd e5 27 7e bd f4 8f e5 bd f6 55 83 bd
       -0.08086136 -0.062049765 -0.112090975 -0.0641288
000220 6a 39 08 be 13 ff 16 bd 09 4e 56 bd c3 81 17 be
       -0.13303152 -0.03686435 -0.052320514 -0.14795594
000230 a1 e4 1c 3e 3d d4 1b 3e 6a 94 93 3c f1 85 e5 bd
       0.1532159 0.15217681 0.018015105 -0.11207188
000240 9e 03 f3 3d de 3d 93 bc 75 56 3c bd 7e d3 02 3c
       0.11865924 -0.017973837 -0.04598089 0.007984994
000250 51 f1 54 3e ba 22 24 3d bf 92 a6 3c ef b9 b0 bd
       0.2079518 0.04007218 0.020333646 -0.08629214
000260 5d 6b 21 3d 4f bc 8e 3c c0 a8 15 be 74 dd 60 bd
       0.03940903 0.017423777 -0.14615154 -0.054898694
000270 a9 d1 83 3b 50 3a ef 3d 6b 75 cc 3b 14 e4 86 bd
       0.004022796 0.11681044 0.0062395833 -0.06586471
000280 7c d8 8d 3d 28 e1 a3 3d f2 47 fc bd f7 f9 b3 bd
       0.06926057 0.080019295 -0.1231841 -0.087879114
000290 ad be 45 3e 05 3c f4 bd 02 5a 48 3d a7 51 b0 3d
       0.19311018 -0.1192551 0.048913963 0.08609324
0002a0 a3 90 46 3d 90 d2 b4 bb 76 d3 e6 bd 71 fb 02 be
       0.04847778 -0.005518265 -0.11270802 -0.1279123
0002b0 20 19 d4 3c e9 c7 72 3d 9d 6c b5 3b 86 6d 22 bd
       0.025890887 0.05927268 0.0055366294 -0.03965523
0002c0 d5 8b bb bc 55 60 92 3c 45 45 ff bd 07 97 02 3d
       -0.022893826 0.0178682 -0.12464384 0.031882312
0002d0 68 73 24 be 91 73 13 3d e0 89 38 bd ae 2a ac 3d
       -0.16059649 0.035998885 -0.045053363 0.08406578
0002e0 41 3b 06 be 30 14 43 3d 9a da 08 3e b6 87 25 3d
       -0.13108541 0.047626674 0.1336464 0.040412627
0002f0 c8 9e a8 3d 4a be 12 3e 6b 38 e4 3d 2e 96 2a 3e
       0.0823341 0.14330402 0.111435734 0.16658852
000300 bb ef 57 3d 76 a0 f5 bd 2e 5e 24 3d 1c bd d2 bc
       0.05271886 -0.11993496 0.04012888 -0.02572494
000310 67 ca 02 be 3c d8 35 be f0 c2 e9 bc c7 c7 da 3d
       -0.12772523 -0.17758268 -0.028535336 0.10682636
000320 88 f3 79 bd 08 2f 10 bc a3 e3 c4 3d cd 2b 64 3d
       -0.061023265 -0.008800276 0.09613731 0.055705834
000330 d9 dc 00 3e f0 c7 f6 3d ec bb a6 bd ab 53 e3 bc
       0.12584247 0.12049854 -0.08141312 -0.027749857
000340 0a 71 35 be 13 43 31 bd 51 52 3c bd 92 19 19 3c
       -0.17718902 -0.043276858 -0.04597694 0.009344475
000350 0f fb a9 3d ed 36 9e bc ce e1 0b 3d 32 df 9f bc
       0.08299839 -0.0193133 0.03415089 -0.019515608
000360 ea bb 0e 3e ae d4 4d 3d 3c 4b f1 bd 40 a0 e5 3d
       0.13938871 0.050251655 -0.11781928 0.11212206
000370 f6 99 7c 3d 3e f3 f2 3c ec fb 9e bb 72 c2 70 bd
       0.061670266 0.029657003 -0.004851809 -0.058779188
000380 22 73 bb bd 58 6a b5 bd f5 a0 0a bd 37 66 b5 bc
       -0.09152819 -0.08858174 -0.033844907 -0.022143466
000390 55 b0 7e bd 87 99 6f bd 6b 6d 18 3d 00 da 8b bd
       -0.062179882 -0.058496024 0.037213724 -0.068286896
0003a0 1e b1 83 3c 95 36 81 3d 12 ae 8c bd 2f 93 b2 3c
       0.016075667 0.06309239 -0.06869139 0.021798698
0003b0 ad 5e ce bd ca 6d 67 3d 9f 1c 27 3e b2 ca 67 3d
       -0.10076652 0.056501187 0.16319512 0.05658979
0003c0 10 5f 96 3d 77 59 bd bd 3d a8 32 bd e7 cc 66 bd
       0.073423505 -0.0924558 -0.043617476 -0.056347754
0003d0 f7 b4 8d 3d 2f c1 9e bd d2 82 9c bd c7 a0 ba bd
       0.06919282 -0.077516906 -0.076421395 -0.09112697
0003e0 0d c0 27 bd 08 8d 06 be 68 42 92 bd 00 59 2e bd
       -0.04095464 -0.13139737 -0.07141572 -0.042565346
0003f0 3d 45 ce bc 16 99 0f 3e 7a 52 82 3d 6c d3 bb bd
       -0.0251795 0.14023241 0.063633874 -0.09171185

lstm.weight_hh_l1 f4 [256, 64]
000000 64 a4 93 3d 9a 0e 6c 3e 2b 21 6c bd 0a 92 02 3e
       0.072090894 0.23052445 -0.05764882 0.12751022
000010 d6 9d 10 be c4 e4 c9 bd 05 da 8b bd 61 9b 29 3b
       -0.1412271 -0.09858087 -0.06828693 0.0025879967
000020 61 64 71 3d b2 88 12 bd 89 0a 83 be 00 dc 5a 3c
       0.05893362 -0.035774894 -0.25593975 0.013358116
000030 5e 21 8a bd cf 00 2e 3d 75 b4 7b 3e f6 ea 79 bd
       -0.067446455 0.04248124 0.24580558 -0.06101509
000040 1c 9e 05 be e5 08 ab bd 1a f7 e3 bc 88 6b 29 bc
       -0.13048595 -0.08351306 -0.027827788 -0.010340579
000050 52 80 17 3e c9 09 5d be 62 53 39 bd eb b3 82 3d
       0.14795044 -0.21585764 -0.045245536 0.06381973
000060 c8 7c 1a 3e e2 90 77 bd 6c 58 a2 3e f5 71 9f ba
       0.15086663 -0.060440905 0.31708086 -0.0012164699
000070 2e bd 96 bc 95 bd f1 3d 67 bd 10 3e d6 c8 2f 3d
       -0.018400755 0.11803738 0.14134751 0.04291614
000080 1e 6e 88 bc 61 ac 0c bd c3 d8 88 3d aa d3 07 3d
       -0.01665407 -0.03434408 0.06681969 0.033160843
000090 89 20 70 3d 28 61 88 3d 50 73 7c 3d 24 ee 97 3c
       0.058624778 0.06659156 0.061633408 0.018546171
0000a0 23 db a1 3d b3 cc 16 3e 8c bb a0 3c 42 f9 50 bc
       0.07903125 0.14726524 0.01962068 -0.01275474
0000b0 0b 89 e7 bd 26 2a 62 3d 9d d8 66 3d ca 32 98 bd
       -0.11305436 0.055215977 0.056358922 -0.07431562
0000c0 b6 20 a9 3d cf a7 11 bd 40 6f 29 3d 29 aa ec b8
       0.08258192 -0.035560425 0.041365862 -0.00011285052
0000d0 e4 33 2a bc 96 4a 16 3d eb 67 72 3d df 2d 8b 3d
       -0.010388348 0.036692224 0.059181135 0.067958586
0000e0 60 e6 2e bd e0 7c 6c bd ca de 63 be 0e f3 ea 3d
       -0.04270017 -0.057736278 -0.22252956 0.1147214
0000f0 16 5b 5c bc f5 ba 07 be f6 95 37 bd 27 39 7e be
       -0.013449451 -0.13254912 -0.04482075 -0.2482649
000100 6a 0f 36 bc a9 54 57 3e cd 84 84 3d 59 b0 43 bc
       -0.011112073 0.21028389 0.06470642 -0.0119439
000110 c1 69 23 bd 33 49 a9 3c 79 23 93 3c 87 da cb 3d
       -0.039895777 0.020664787 0.01796125 0.0995379
000120 42 23 1a 3e 75 e6 02 3e 3b ca a3 be 15 a3 27 3d
       0.15052512 0.12783225 -0.31990227 0.04092701
000130 5e cb 38 be eb e1 ce bc 31 08 4d 3e e4 9b b8 3c
       -0.18046328 -0.02525421 0.20022656 0.022535272
000140 25 90 cc bd 61 bf ea bd eb 15 26 3e 22 c8 ec bd
       -0.09988431 -0.11462284 0.16219299 -0.1156161
000150 11 9d f6 3d 8c b2 27 be 87 83 06 3e 3f 7f ac 3d
       0.12041677 -0.16376704 0.13136111 0.08422708
000160 1b 8f c4 3d ee 2d 23 3e e2 86 a7 3d b9 69 f2 3d
       0.09597608 0.1593549 0.08180024 0.11836571
000170 53 7b 80 3d ad 1b 9a 3b 6e 38 8b bd 16 f0 b8 3c
       0.06273522 0.0047030062 -0.067978725 0.02257542
000180 f1 6c 69 3d 70 8c b0 3d 95 a3 25 3e 58 81 1a 3e
       0.05698866 0.08620536 0.16175683 0.15088403
000190 53 21 99 bd d0 e9 e5 bd 0b 1b 4e 3d 65 c3 8c bd
       -0.07477059 -0.11226237 0.05031876 -0.06873206
0001a0 77 31 04 bc dd 5d 3b bd b5 7b 27 3d 41 c4 3b be
       -0.008068434 -0.045743812 0.04088946 -0.18336584
0001b0 37 c0 0b be 81 12 97 3d cf dc 59 bc 9d 2e a1 bd
       -0.13647543 0.07376576 -0.013297274 -0.07870219
0001c0 e3 e4 aa 3d dc b8 2b 3e d3 5d 04 3e 9f 0c 08 bd
       0.08344438 0.16769737 0.12926416 -0.03321516
0001d0 8b b6 e1 bc 0f 76 ef bd f8 70 21 3d 1c 53 52 3d
       -0.027552864 -0.1169244 0.039414376 0.05134879
0001e0 34 86 98 bb c6 78 c7 bd 22 ce 78 3c 5c 51 11 bd
       -0.00465467 -0.097398326 0.015185865 -0.03547798
0001f0 c1 ae 9e 3c 60 d8 dc 3d a7 a8 d3 3c fb e1 ac bc
       0.019370439 0.10783458 0.025837256 -0.02110385
000200 d7 64 42 3e 42 64 f8 3d 07 39 b2 3c ef 8a 8e 3d
       0.1898378 0.12128498 0.021755708 0.06960093
000210 b6 a6 2c 3d b0 04 23 be 41 85 c5 3d f6 3b 88 3c
       0.042151175 -0.15919757 0.09644557 0.016630154
000220 f1 90 53 3e f0 06 f5 3d 24 78 d2 bd 01 30 25 3e
       0.2066076 0.11964214 -0.10276821 0.16131593
000230 30 68 66 3c 3e dd 0e 3e 5b 77 63 bd d9 b6 d3 3d
       0.014062926 0.13951585 -0.055533748 0.1033761
000240 8d bd f0 3d 68 1b 36 be 2b a2 96 3d bc ee 24 3d
       0.11754904 -0.17783892 0.0735515 0.040266737
000250 c3 24 1e 3d 80 e0 35 be 9c 22 b0 bd 42 64 83 bd
       0.038609277 -0.17761421 -0.08600351 -0.06415607
000260 b2 11 ff 3d 72 ce e8 bc 25 80 75 3e 47 cf 66 bc
       0.12454547 -0.028418753 0.23974665 -0.014087505
000270 0d 83 26 3e c2 e0 7d 3d 36 5d d3 bd 46 c7 c4 3c
       0.1626093 0.061981924 -0.10320513 0.024020802
000280 c6 d9 81 bc 27 9d 9e bd 76 ba 1d 3d 98 bd 6e 3d
       -0.015850913 -0.07744818 0.0385079 0.05828628
000290 3d a5 45 3d 3a 47 e0 3d 60 f5 a5 3d 54 f9 a2 3d
       0.048253287 0.109510854 0.08103442 0.07957712
0002a0 47 61 12 3e 2f 48 8a 3b c9 67 07 3d cb 0d 3a be
       0.14294921 0.0042200307 0.03305796 -0.18169324
0002b0 45 d7 65 3d 65 ea 20 be 8d 02 71 ba c9 83 8b 3d
       0.0561135 -0.15714414 -0.00091938005 0.068122454
0002c0 1d bf c4 3d 50 0e ab bd 54 c0 c8 3d 4e ed d5 3d
       0.096067645 -0.08352339 0.09802309 0.10445653
0002d0 58 da 85 3d f3 df b8 bb 06 9b ea 3d 78 df c7 3d
       0.065357864 -0.005641931 0.114553496 0.0975942
0002e0 1b 54 c2 3d 5d 60 cd 3c ef 70 01 be 8c 35 3c 3e
       0.09488698 0.025070364 -0.12640737 0.18379802
0002f0 56 1f 83 3d 56 60 90 3d 88 d0 2d 3e 88 74 84 bd
       0.06402461 0.070496246 0.1697408 -0.06467539
000300 f6 cb ce 3d 9f e6 bc 3c 23 cc 9f 3d 82 1c 2e 3d
       0.10097496 0.023059187 0.07802608 0.042507656
000310 c4 f1 20 3c fa 9a cb 3d 46 66 08 3e ca 1b 09 bd
       0.009823266 0.09941669 0.13320264 -0.033473767
000320 9f a3 fc 3d 0d ba 39 bc 9d 4d 27 be 6c ff 62 bd
       0.12335896 -0.011335862 -0.16338201 -0.05541937
000330 65 88 f8 3d 4e bf 54 3d 4d 73 0a 3c ce 60 bc bc
       0.1213539 0.051940255 0.008450341 -0.022995379
000340 8b 3a 0f 3e 4c 6f 04 bd c6 ab fd 3d dc cf d6 bd
       0.13987176 -0.032332703 0.12386279 -0.10488865
000350 e7 63 60 bd a5 b7 58 bc 8d e5 00 3e a6 bd 85 bd
       -0.054782774 -0.013227378 0.12587567 -0.06530313
000360 eb 84 d3 3d 76 83 89 3a ac 72 1a 3e ec b2 8c bd
       0.103280865 0.0010491449 0.15082806 -0.06870064
000370 b9 51 05 3e f9 02 73 3d 5b 02 a6 bd 9b 0e cd 3d
       0.13019456 0.059329007 -0.08105918 0.100125514
000380 9b 92 cd bc 46 fc 21 bd 2e 15 8a 3b 1f 36 38 3e
       -0.025094321 -0.039547227 0.0042139506 0.17989396
000390 7d 22 bd 3d 1f bc 2b bd 07 07 04 3e 50 93 9e 3d
       0.09235094 -0.041927453 0.12893306 0.077429414
0003a0 09 42 0b bb d0 12 17 3d 59 4b f9 bb 40 41 4d 3d
       -0.0021249077 0.036883175 -0.007607859 0.050111055
0003b0 c0 00 2f 3d 3b 36 d7 bd 45 11 06 3e 6e 99 07 3e
       0.042725325 -0.105083905 0.13092525 0.13242123
0003c0 ed 06 a0 3a 85 47 37 bd 50 10 ec 3d 10 ec fd 3d
       0.0012209095 -0.04474594 0.11526549 0.12398541
0003d0 0a 5d 98 bd 7e 51 28 3e 8c 03 c8 3c 2b 27 5c ba
       -0.07439621 0.16437337 0.024415754 -0.00083981705
0003e0 3e 03 89 bd 06 db 13 be 33 c0 47 be 21 6d f8 3d
       -0.066900715 -0.1443902 -0.19506912 0.1213019
0003f0 ab 55 d3 3c fe 5a 87 bd e8 ee 34 3d 8a 57 67 3d
       0.025797686 -0.06609152 0.04417315 0.056479968

lstm.bias_ih_l1 f4 [256]
000000 b7 5f ac 3d 0d 63 7c bb 1d 71 3c 3e a9 f8 2a 3e
       0.08416694 -0.0038511187 0.18402524 0.16696419
000010 90 d7 81 bc 01 e7 28 3e f0 f1 6c bb 13 3f 19 3e
       -0.015849859 0.16494371 -0.0036154948 0.14965467
000020 53 29 7d bd 9c e7 1d 3e a7 bb 42 3e 68 65 99 3d
       -0.061806988 0.15420383 0.19016896 0.07490045
000030 31 4f 0d 3e de 1f 1f bd 50 2c 23 3e 29 e4 9e 3d
       0.1379974 -0.03884875 0.15934873 0.07758362
000040 7f fd e5 3d 20 a3 fa 3d a8 2f 9c bd 82 76 e6 3d
       0.11229991 0.12238145 -0.07626277 0.11253072
000050 7c c5 56 3d 1c 6f d2 3d 8c f0 59 3d d2 15 77 3d
       0.05243443 0.10275099 0.05320792 0.060323544
000060 4c a3 e0 3d 37 89 07 3e 50 ef d5 3d ac ad 92 bc
       0.109686464 0.13235937 0.10446036 -0.017905079
000070 ab 42 01 3e de df 1d 3b c3 d1 41 3d 62 2f 31 3e
       0.12623088 0.0024089734 0.047319185 0.17303231
000080 db a1 a5 3d a1 d7 c0 3d 16 b8 34 3e 08 bb 5a 3d
       0.08087512 0.09416128 0.17648348 0.053401023
000090 1d e4 c4 3d 29 90 e4 ba c9 ae eb 3d 9a b0 e5 3d
       0.09613822 -0.0017437983 0.11507947 0.11215325
0000a0 4a ba 96 ba 6f 08 d6 bc 1b e3 0c 3e ea cf f4 3c
       -0.001149961 -0.026127068 0.13758509 0.029884297
0000b0 a3 9f 98 3c 51 10 f6 3c 8a ab f6 bc 82 53 14 3d
       0.018630808 0.030037077 -0.030111093 0.03621245
0000c0 ff ed af bd 5b 1c 16 3d 19 63 06 3e e8 78 6e 3d
       -0.08590316 0.036648136 0.1312374 0.058220774
0000d0 61 d1 00 3e 5a c1 4c bc 9f 03 c0 3d a0 14 2e 3e
       0.12579872 -0.0124972705 0.09375691 0.17000055
0000e0 cd 2a b5 3c 45 ab 10 bb de 1f 0b 3e 66 61 7e 3d
       0.022115136 -0.002207474 0.13586375 0.062104605
0000f0 1c db 9b bd 30 b9 f6 b9 07 2f 6f 3c 94 59 23 bd
       -0.07610151 -0.00047058752 0.014598615 -0.03988035
000100 1d 34 b3 bd 37 4f d6 3d ab b0 0e 3c ef 1b 86 3d
       -0.08750174 0.10464328 0.008709113 0.06548297
000110 9e ae 29 bd 77 a8 b4 3d e4 10 cb 3c 84 8e 6f 3d
       -0.041426294 0.088211946 0.024788328 0.058485523
000120 dc 42 85 bd 15 ad 13 3d 82 0b ce 3d cf bb 94 bb
       -0.06506893 0.036053736 0.10060789 -0.00453899
000130 be 64 12 3e c2 67 07 3e a9 36 ce 3d 4a be 38 bd
       0.14296243 0.13223174 0.10069019 -0.04510335
000140 a2 13 ce 3d ef 1f 23 bd b1 04 fb 3d 0b c8 a9 3d
       0.100623384 -0.039825376 0.12256754 0.08290108
000150 81 b0 a7 bd 8d 0b ac 3d 31 8c c8 3c f5 aa 8a bd
       -0.08187962 0.08400641 0.024480911 -0.06770889
000160 5d e7 a9 bd 86 53 48 bd fb cf fa 3d 13 9d 7f bd
       -0.08296082 -0.04890778 0.122467004 -0.062405657
000170 a8 c7 16 3e a7 8c 01 3e 36 17 06 3e ef d3 b1 3d
       0.147246 0.12651311 0.13094792 0.08683001
000180 91 95 89 3d c7 14 dd 3c 40 87 33 3d 62 fd 54 3c
       0.06717981 0.026987446 0.043830156 0.012999864
000190 35 6f b6 3d 1a bb c7 3d 71 41 ed bc 57 10 a7 3d
       0.0890793 0.09752484 -0.028961869 0.081574135
0001a0 ea 57 53 3d 26 41 17 3e 41 33 be bc e2 14 8e 3d
       0.051597513 0.14770946 -0.0232178 0.06937577
0001b0 9d be ee 3d 1e 2f 12 3d 57 58 62 bd 00 10 15 3d
       0.1165745 0.035689466 -0.05526003 0.036392212
0001c0 6e 14 45 bc 91 97 ed 3c 5f 81 39 3b d0 b1 ad bd
       -0.012028797 0.029002937 0.002830587 -0.08481181
0001d0 b5 76 0f bb ac 9c 94 bc 0f 6e 6e 3d f7 2d 5e bc
       -0.0021890823 -0.018141113 0.05821043 -0.013560764
0001e0 8e 68 db 3d 66 1d 79 bd 5c 73 ef 3c 89 10 06 3d
       0.107133016 -0.060819052 0.029229812 0.032730613
0001f0 27 21 ea 3d d4 bc 00 bd 2c 83 0d 3e bb 15 20 3e
       0.114321046 -0.03143008 0.1381957 0.1563329
000200 e2 a8 9c 3d a4 cb 7e 3d c1 c6 9a bb fc 69 e5 3c
       0.07649399 0.062205926 -0.0047234003 0.028004639
000210 91 df c9 3d 86 b6 3d 3d b7 fb f5 3b 33 08 e0 3d
       0.09857095 0.046316646 0.0075068134 0.10939064
000220 40 e5 db 3c 60 e5 24 3d a3 2e c1 3d e1 33 0b bd
       0.026842713 0.04025781 0.094327234 -0.033985022
000230 99 18 94 3d 7f 48 89 3d c8 56 81 bc 73 c0 9f bc
       0.07231254 0.06703281 -0.01578845 -0.019500947
000240 80 3d da 3d d9 8c 1a 3d ee b4 6c 3c 95 8f d6 3c
       0.106562614 0.03773198 0.014447434 0.026191512
000250 c5 f6 cf 3d 71 fe b9 3d a5 62 84 bd b1 71 9c 3c
       0.101544894 0.09081734 -0.064641275 0.019097181
000260 13 0f f9 3d 2b 79 4d 3d fd 6e 3e bd ee 94 db 3d
       0.12161078 0.050164383 -0.046492565 0.107217655
000270 52 f2 96 bd 90 1c 49 bd e7 62 05 3d ef c5 9c bd
       -0.07370438 -0.049099505 0.032565024 -0.0765494
000280 97 e6 28 3d 66 9f 0f 3d bb 93 dc 3d 0f 8b 03 3c
       0.041235533 0.035064124 0.10770365 0.00802876
000290 cb a0 cd 3d 14 48 6d 3d 73 c8 d3 bd 61 3d c5 3d
       0.100404344 0.057930067 -0.10340967 0.09630848
0002a0 3f 54 d7 3d 42 fe 12 be 5d ac 15 3d 5c f9 9a bc
       0.105141155 -0.14354804 0.03654133 -0.018917732
0002b0 8a c7 8d 3d 7f 4b 2a 3d e3 3a 6f 3d a5 78 ea 3d
       0.06922825 0.041575905 0.058405768 0.11448792
0002c0 79 63 de 3d ef 5a 77 bd bd 77 ac 3d 45 7c ae bc
       0.10858817 -0.060389455 0.08421276 -0.02129949
0002d0 26 da 01 3e c6 0c 53 bd 5c c4 41 bc 7b 6a 97 bd
       0.12680873 -0.051525854 -0.011826601 -0.073933564
0002e0 a1 29 05 be 8c f1 19 be 03 8e 0b be 72 4a 85 bc
       -0.13004161 -0.15033549 -0.13628392 -0.01627085
0002f0 8a 25 da 3d b4 6a 14 be f9 d8 bc 3d bd 6e a6 3d
       0.10651691 -0.14493829 0.09221072 0.081265904
000300 9c 53 3e 3d 7f 6f 07 3e 0d 62 9c 3d c5 ee 05 3d
       0.046466455 0.13226126 0.07635889 0.03269841
000310 a4 50 da 3c e1 a4 22 3e ef 87 da bc 2e e9 2f 3e
       0.02664978 0.15883209 -0.026676146 0.17178795
000320 20 0c b2 3d c2 86 05 3e d0 0c be 3d f2 0b f6 3d
       0.08693719 0.13039687 0.092797875 0.12013997
000330 24 e1 30 bd 1a 55 9c 3c 4e 01 b4 3d 32 7b ee bc
       -0.04318346 0.019083548 0.08789311 -0.029111478
000340 d0 00 80 bc b9 ec 30 3e 38 44 9b 3d 88 8f 01 3e
       -0.015625387 0.17277803 0.07581371 0.12652409
000350 60 7a 84 3d ec 9d e6 3d 6c 21 50 bd 23 e0 8e 3d
       0.06468654 0.1126059 -0.050813124 0.069763444
000360 a5 33 fd 3d b6 af a8 3d d1 ff c7 3d 42 6a 3b 3d
       0.12363366 0.08236639 0.0976559 0.045755632
000370 2a 9b 3f bd 40 4b 08 3e 13 ac 51 3d 0e c7 94 bc
       -0.046778835 0.13309956 0.051189493 -0.018161323
000380 d9 b8 bf 3d e8 17 39 bd 79 74 15 3e 82 09 1b 3d
       0.09361429 -0.045188814 0.14595212 0.037850864
000390 a2 a9 a7 bd 78 56 bd 3d 5a 2c 07 3c c2 bb 25 3e
       -0.08186652 0.09245008 0.00825032 0.16184905
0003a0 96 33 a2 bc bd f5 45 3e 90 97 9b 3d 33 5f 6d 3e
       -0.019799989 0.19332023 0.07597268 0.23180847
0003b0 c2 15 1b 3d 45 db a1 3d 44 c8 07 3e 12 1c c8 3c
       0.037862547 0.079031505 0.13259989 0.024427447
0003c0 58 7a 08 3e 9f c5 8c bc 14 92 9d b9 20 c2 ba 3c
       0.1332792 -0.017184077 -0.0003005421 0.022797644
0003d0 e9 29 d8 3c 32 1b 35 bb 96 70 08 bd d2 13 b3 3d
       0.026387172 -0.0027634618 -0.033310495 0.08744015
0003e0 9a a7 e2 3c 94 a0 47 bd 1d 22 27 3e d8 ea 0d 3e
       0.02766781 -0.048737124 0.16321607 0.13859117
0003f0 48 84 cc 3d 31 53 e1 bc 4c 1b 2c 3e 1f 28 5f 3d
       0.09986168 -0.027505489 0.16807288 0.05448162
